assets/final_FR_model_lite.tflite (tflite, 980492 bytes, 24 tensors)

arith.constant f4 [32]
000000 20 b0 21 bb 42 88 0c 3c 2c fc 1d 3b 1e 4f da 3b
       -0.002467163 0.008577408 0.0024106605 0.0066622635
000010 58 c8 35 3c fa e8 a7 3c 72 e6 2a 3c 39 ee 8b bc
       0.011095129 0.020496834 0.010430919 -0.017081367
000020 4d ee 1a bb 33 85 21 3c da db c6 b9 c7 d4 8f bc
       -0.0023640573 0.009858417 -0.00037929305 -0.017557515
000030 fe 9f b1 bb f1 d9 43 3b 1a c5 96 3b ca a9 44 3c
       -0.005420684 0.0029884542 0.004601133 0.0120033715
000040 b0 37 d7 bb c4 a7 e7 bb a8 38 1d b9 e2 4b fe 3b
       -0.0065679178 -0.00706956 -0.00014993793 0.007760511
000050 1e af ca 3b 21 ad 8c 3c 75 a7 19 3c 7b 4c 55 bb
       0.0061854264 0.017172398 0.009378304 -0.0032546807
000060 35 09 19 3c 7a e5 95 3c e6 af 9e bb b7 e1 7e 3c
       0.009340574 0.0182979 -0.004842746 0.015556744
000070 67 3e 8d 3c 6e 13 13 bc ed 71 32 3c a5 42 85 3b
       0.01724167 -0.0089768 0.01089142 0.0040667825

arith.constant1 f4 [96]
000000 5c 24 c7 b9 7d a7 cb 3b d6 c0 d4 3b 99 5e 80 3b
       -0.00037983328 0.0062150345 0.0064927144 0.003917527
000010 bc 7c 12 3a 79 29 0b 3c c4 0f ca 3a a8 31 5d bb
       0.0005588045 0.008493775 0.0015416075 -0.0033751521
000020 d1 b5 48 3c 79 38 1a 3b 5c f2 34 ba b9 2d ca 3b
       0.01225038 0.0023532195 -0.00069025694 0.0061700013
000030 94 b2 83 b9 a8 ee d1 3b a6 8e df 3b 01 10 2a bc
       -0.00025119318 0.006406624 0.006822425 -0.010379792
000040 2a cb 98 3c c2 ac ad 39 42 d8 2f bc 50 3b 11 3c
       0.018651564 0.00033125846 -0.010732712 0.008864239
000050 e7 18 86 bc 87 33 93 3b 7d 9b 30 bb a6 e3 7f 3b
       -0.016369296 0.0044922265 -0.0026948147 0.00390456
000060 3f f6 0a 3c d0 61 86 bb ca 90 51 3b 1b 56 6d 3c
       0.008481561 -0.0041010156 0.003197717 0.014485861
000070 80 16 10 3b 30 4d 56 3a b4 28 2e bc 49 ad 10 bc
       0.0021986067 0.0008174954 -0.010629822 -0.008830377
000080 6d 19 43 ba d5 b3 3b bc 6f 03 97 bc cd 26 c2 ba
       -0.00074424484 -0.0114564495 -0.018434254 -0.0014812589
000090 7a 30 ba 3b 0c b7 73 3b 55 cd a7 bb cd 19 8d 3a
       0.0056820484 0.0037187962 -0.005120913 0.0010765136
0000a0 c0 d3 1c 3c ae c0 82 3b 89 5f c2 bb d0 43 e5 3b
       0.0095719695 0.0039902544 -0.005931799 0.0069966093
0000b0 e6 bf f9 3b e3 cf 9f 3b e0 83 d4 bb 0b df c4 39
       0.007621753 0.004877077 -0.0064854473 0.00037550213
0000c0 0a ab 1a 3c a5 ec a3 3b 65 f7 5b 3b 63 8e fe 3a
       0.009440193 0.0050025755 0.0033564207 0.0019421097
0000d0 97 cf 7c ba 19 36 34 bb e7 8b 78 bb 84 1d b2 ba
       -0.00096439704 -0.0027498065 -0.0037925185 -0.0013589119
0000e0 06 be 3f 39 2c af e3 ba a9 36 5c bb e5 a7 4f bb
       0.00018285969 -0.0017370931 -0.0033601916 -0.0031685766
0000f0 99 eb f5 3a 30 9f 3d 3c b2 49 80 3b 4b 46 45 3b
       0.001876223 0.011573598 0.003915035 0.0030101712
000100 9c c7 3c 3c 28 ea a7 b8 06 d2 5e b9 bc df 62 bc
       0.0115222 -8.0067955e-05 -0.0002124981 -0.013847288
000110 f5 14 d0 3a 50 16 51 ba 02 74 8f bb e9 74 20 bc
       0.0015875386 -0.0007976042 -0.004377843 -0.009793499
000120 54 2c 22 bb 3c d9 93 3b 5d 16 11 3b e3 23 92 3b
       -0.002474566 0.0045119803 0.0022138574 0.0044598444
000130 d8 37 d3 3b 33 18 e6 bb 02 f3 1b 3b 1c 98 ad 3c
       0.006445866 -0.0070219277 0.0023795967 0.021190695
000140 51 52 0c 3c 26 ef 53 bc a5 2e 08 bc 20 b0 98 bb
       0.008564548 -0.012935435 -0.008311902 -0.0046596676
000150 08 45 4b bb 3a 79 09 bc 34 99 9d 3b 8c 82 22 3b
       -0.0031016488 -0.008390719 0.004809523 0.002479705
000160 4b 65 66 bb 38 9b c1 bb bc b8 ae bb 9e 44 ba 3b
       -0.003515559 -0.005908396 -0.0053320806 0.0056844493
000170 79 08 a3 39 07 b8 ce b9 cd 73 05 3c 7a 12 e7 ba
       0.00031096095 -0.00039428493 0.008145285 -0.0017629408

arith.constant2 f4 [64]
000000 a8 e3 2e 3c 3f ce 29 bb 72 20 82 3c 0f ab 77 3c
       0.010674395 -0.0025910286 0.015884612 0.015116467
000010 a0 c5 17 bc f0 c2 22 3c 41 1f c5 ba e5 69 49 bb
       -0.009263426 0.009934172 -0.0015039222 -0.0030733284
000020 df 1e 5e bc 4c 77 6b 3b bf 6e 2b bc c3 cd 8a 3b
       -0.013557165 0.003592926 -0.010463416 0.0042359545
000030 e8 be 81 bb 19 59 98 3b 20 49 19 3c ac 94 be ba
       -0.0039595254 0.004649293 0.009355813 -0.0014540157
000040 03 78 c2 3b d8 e0 a7 3b 40 84 73 bb aa 10 4e 3c
       0.0059347167 0.005123239 -0.0037157685 0.012577215
000050 94 61 2b bc c6 cf 01 3c 30 1b de 3b dd af a1 3a
       -0.010460276 0.007923072 0.0067781433 0.0012335737
000060 4c 5d 3c 3c b8 5f 5b bb 61 81 d5 bb d2 96 e8 3b
       0.011496853 -0.00334738 -0.0065156673 0.0070980573
000070 32 0f 2c 3b 11 7d db 3b 6a ba c7 3b 75 43 94 3b
       0.0026254174 0.0066982587 0.0060952203 0.004524643
000080 1f 98 9c 3b 58 c2 4c bb 65 03 db bb 28 8e a3 bb
       0.0047788764 -0.0031243768 -0.0066837543 -0.0049913116
000090 29 a0 a9 bb 55 37 f4 bb 02 36 31 bb 6d 80 57 3b
       -0.0051765633 -0.007452885 -0.0027040248 0.0032882944
0000a0 04 53 2c 3c 12 14 29 3b e1 3e fa 3b 70 e2 1d bc
       0.010517839 0.0025799316 0.0076368903 -0.009636506
0000b0 1a b3 65 bc e2 50 5b bc 8f 18 0e bc f4 a6 13 38
       -0.014019752 -0.013385983 -0.008672847 3.520302e-05
0000c0 fb d2 52 3c 66 c5 ef 3a 58 7a 60 3b ef 0a d2 ba
       0.0128676845 0.0018293082 0.003425261 -0.0016024987
0000d0 05 c4 8a 3c 9a 02 a9 bb b0 1f 61 bb e0 b9 4b 3b
       0.016939173 -0.005157781 -0.0034351163 0.0031086132
0000e0 80 f2 48 3c c0 49 41 3c 21 22 6a 3b 13 10 0b 3c
       0.012264848 0.0117973685 0.0035725909 0.008487719
0000f0 5b 4a 44 3c ff 92 a4 3a 68 23 f3 ba a9 4f 23 3a
       0.011980618 0.0012556015 -0.0018549981 0.0006229827

arith.constant3 f4 [64]
000000 99 0a ca 3b b6 2f a2 3a 93 15 45 3c 90 da 3a 3c
       0.006165814 0.0012373838 0.0120290695 0.011404648
000010 da 65 8d 3b d4 78 92 bb 51 fe 14 bc c6 3a 86 3a
       0.00431512 -0.0044699702 -0.009093837 0.0010240905
000020 b9 8c f8 3b 42 37 93 39 64 57 ac 3a 9c 26 7f 3b
       0.007585135 0.00028079195 0.0013148603 0.0038932925
000030 b7 14 12 bc 20 8c f1 ba 12 51 a1 bb 53 25 3b bc
       -0.008916072 -0.0018428601 -0.0049229944 -0.011422473
000040 71 8f 13 3c ba 6b 78 bc 18 8d 87 ba 91 5e f4 3b
       0.009006367 -0.015162403 -0.0010341732 0.0074575623
000050 69 20 78 3c d2 48 74 3b 6d 77 cf ba 96 ab 5f 3c
       0.015144446 0.003727485 -0.0015828438 0.013651749
000060 34 61 9e bb 5b 5a 0a bc 61 bf 31 3c 32 1d cb bb
       -0.004833365 -0.008444394 0.010848851 -0.0061985487
000070 b2 1c 8f bb 94 b3 5c 3c 42 44 3b bc 26 94 eb 3a
       -0.0043674344 0.013470549 -0.011429848 0.0017973229
000080 c1 d5 a5 ba 39 03 ae 3b fb c2 89 bb 83 a5 96 bc
       -0.0012652205 0.0053104428 -0.0042041517 -0.018389469
000090 24 7e 00 bb f9 50 3e 3c be 3b 47 3b 61 77 97 bb
       -0.0019606436 0.011615985 0.00304006 -0.0046223854
0000a0 7f 04 cb 3b 21 4d 84 bb 6c 39 c8 3b 59 ac 9a 3c
       0.0061956043 -0.004037515 0.006110361 0.01888101
0000b0 7f 54 ea 3a 0b 62 0b bb 44 9c 22 bb 5f 3d 78 3b
       0.0017877965 -0.0021268155 -0.002481238 0.0037878377
0000c0 d8 41 91 bb e0 48 bc bb ba b1 55 bc c4 49 b4 b7
       -0.004432898 -0.005745992 -0.013042862 -2.1492022e-05
0000d0 5c 31 17 3b 92 97 cb bb 10 20 46 3b c1 89 6a 3c
       0.0023070192 -0.006213137 0.0030231513 0.01431507
0000e0 cd c0 bd bb 59 73 06 3c a0 85 27 3c 46 18 6b 3b
       -0.005790806 0.008206212 0.01022473 0.0035872622
0000f0 d9 22 c3 bb f5 f0 14 bc 49 24 26 3b db b4 9a 3b
       -0.005955082 -0.009090652 0.0025351217 0.0047212667

arith.constant4 f4 [32, 3, 3, 96]
000000 da b9 f5 3c 76 32 16 bd 76 05 f2 bb b0 d4 13 bd
       0.029995847 -0.036669217 -0.007385905 -0.036091506
000010 9b f1 fc 3c 9a 23 cd bb 31 74 dc bc 22 89 3a bd
       0.030876925 -0.0062603476 -0.026910873 -0.045540936
000020 f6 a9 19 bd 8c 5b d0 bb e1 78 27 3c 86 1f 48 bd
       -0.037515603 -0.0063585695 0.010221691 -0.048858188
000030 2e 44 ca bb fd d4 38 3d 8a 92 a2 ba c1 41 66 3c
       -0.0061726784 0.045124996 -0.0012403291 0.014053763
000040 8e 14 44 bd 7d 85 40 bd d9 0a 46 3d 59 6f e9 bc
       -0.047871165 -0.047002304 0.04835019 -0.028495478
000050 45 cc 26 bd 13 df a8 bb 71 73 72 bd 7a af 03 3d
       -0.04072215 -0.0051535456 -0.059192125 0.03214977
000060 59 77 60 bd 72 a6 7e 3c f9 18 33 3d dd 3b 19 bd
       -0.05480132 0.015542613 0.043724988 -0.037410606
000070 66 e6 34 bd f0 11 2f 3d 77 e9 73 3d 52 fc fc bc
       -0.044165038 0.042741716 0.05954882 -0.030882034
000080 3e 7f 70 3d dd b3 49 bd c5 d7 f3 3c b2 0c 98 bc
       0.058715098 -0.049243797 0.029765973 -0.018560741
000090 b8 35 d1 bc eb 70 7c bd f4 a8 ca 3c d8 95 a6 bd
       -0.02553831 -0.061631124 0.024738766 -0.08134049
0000a0 11 93 20 bd af 87 bd bc 6b e6 a2 bc e2 29 dd 3c
       -0.039202753 -0.023135988 -0.019885262 0.02699751
0000b0 59 4c 82 3c 7c ee 5a 3d 92 e5 60 3d 99 d1 10 bc
       0.015905546 0.053450093 0.054906435 -0.0088390345
0000c0 34 92 f9 bc 0e 46 50 3d 2a 3a 16 bd 10 57 b6 bc
       -0.030465223 0.05084806 -0.036676563 -0.022258312
0000d0 1b 68 ac bb 83 79 39 3c 4a 6b 1b bd 40 4c 37 3d
       -0.005261434 0.011320475 -0.037944116 0.044750452
0000e0 ec 3d 01 bd d8 61 89 3c a0 65 39 3a f4 b3 47 bd
       -0.031553194 0.016770288 0.0007072333 -0.0487556
0000f0 88 fc ab 3c 60 04 fe 3c 60 70 f0 3a 7c 00 19 3d
       0.02099444 0.031007946 0.0018344037 0.037353978
000100 f2 78 b3 3c ca c8 69 3a 96 39 0d bd c2 72 40 bc
       0.021908257 0.00089181645 -0.034478746 -0.01174611
000110 f7 7d 66 3d 2c 43 fb bb 09 78 b6 3c 5c 2f e8 3b
       0.056272473 -0.0076679196 0.022274034 0.007085724
000120 2c fd f4 bc 11 f4 14 bd 6e a9 20 3d df 88 83 3d
       -0.029905878 -0.036365572 0.03922408 0.064225905
000130 8e cc 2d bd be a1 4d bd 31 f2 2e bd 61 51 a5 bc
       -0.042431407 -0.050203077 -0.04271144 -0.020180406
000140 f6 c0 de bc 7b 38 60 bd ec 6b 4a bd 96 7f 29 3d
       -0.02719162 -0.054741364 -0.04941933 0.04138144
000150 21 e0 a6 3c 46 18 3c bd 34 0f 54 bc 7f aa e7 3b
       0.020370545 -0.045921586 -0.012943078 0.0070698853
000160 37 32 4b bd 6d 3e 23 bd 15 96 e7 bc dd 3b 4e bd
       -0.049608435 -0.039854456 -0.028269807 -0.05035006
000170 c3 ea 17 3d 5e 53 1b bb 7a cc 8a 3d 5f f7 05 bc
       0.03708912 -0.0023700814 0.06777282 -0.008176654
000180 5f 01 0a 3d 9f 20 35 bd 2b fd 78 bc b4 b6 40 bc
       0.033692714 -0.044220563 -0.015197079 -0.01176231
000190 61 4d 1d 3d 06 c4 08 bd 8f 13 18 3d 73 88 e5 3a
       0.038403872 -0.033390068 0.037128028 0.0017511979
0001a0 bd ac 4d bd 5a 51 8c 3d 00 6c 81 3d c5 65 fb bc
       -0.050213564 0.06851454 0.063194275 -0.030688176
0001b0 a5 6e 23 3d 61 cf e9 3b 36 94 3f 3d 72 ee 0c bc
       0.03990044 0.007135317 0.046772204 -0.008601772
0001c0 93 6c 54 3d 65 6d 4c 3c 6a 80 ca 3b b1 64 29 bd
       0.051861357 0.012477254 0.006179859 -0.041355792
0001d0 ed ab 90 3d 32 8c c4 bc 8d d8 0a 3d c8 f6 4d bd
       0.07064042 -0.023992632 0.033897925 -0.050284177
0001e0 96 0d 04 bd 4f 88 8a 3d a1 ef 70 3d ca 9d 93 3d
       -0.03223952 0.0676428 0.058822278 0.0720783
0001f0 b2 e0 7d 3d a3 90 58 bd d2 2c 55 3d 10 15 be 3a
       0.061981864 -0.05287231 0.052044697 0.0014502127
000200 57 62 df bc 7d f7 94 bc 42 6f 67 bc 31 8d eb bb
       -0.027268572 -0.018184418 -0.014125647 -0.007188462
000210 4a 67 05 bd 08 53 12 bd b4 62 8d 3d 78 fa 45 bc
       -0.032569207 -0.035723716 0.06903592 -0.012083642
000220 59 00 82 bd bd 3e 29 bd c1 e7 38 bd 29 6b 7b 3d
       -0.063477226 -0.041319598 -0.045142893 0.061381493
000230 ae 5f 29 3c 73 c7 67 bd 23 24 59 3d af 0d 7f 3b
       0.010337753 -0.056586694 0.05301298 0.0038918068
000240 ac 00 fa 3c af 8c 33 3d f5 68 56 bd a9 b7 87 bd
       0.030517898 0.04383534 -0.05234619 -0.06626827
000250 08 7b 11 bd 58 32 90 bd 89 54 57 3c 96 48 be 3b
       -0.035517722 -0.07040852 0.013142713 0.0058069928
000260 fd ca 88 bc 5e 3b 58 bd 6d ad 18 3d 71 6c 02 3d
       -0.016698355 -0.052790992 0.037274767 0.0318417
000270 40 37 05 3c ff 24 ec bb 09 43 6b 3d b3 83 9c 3b
       0.008130848 -0.0072065587 0.057436977 0.004776442
000280 5e e8 10 3d be 77 7a bd 9b c2 11 3d e4 14 4a bc
       0.035377853 -0.06114935 0.03558598 -0.012334082
000290 35 2e 05 3d f8 ce 27 bd 94 ea 88 bd 62 2f 48 3d
       0.03251477 -0.040968865 -0.06685367 0.048873313
0002a0 30 ea 05 bd 07 eb 87 bc 88 59 a5 3c 63 f7 56 3d
       -0.03269404 -0.016591562 0.020184293 0.05248202
0002b0 32 32 60 bd 52 ee 16 3d 28 83 1e bd 8b f1 10 3d
       -0.05473537 0.036848374 -0.0386993 0.035386603
0002c0 44 f9 39 bd 13 19 41 3d d4 16 24 bd 10 ee a3 3c
       -0.045403734 0.047143053 -0.040060833 0.020010978
0002d0 e6 ae 98 3c b7 49 88 ba 00 0d 41 bd 83 11 b1 3c
       0.018638086 -0.0010397945 -0.04713154 0.021614796
0002e0 25 a5 97 3d 69 87 73 bd 14 92 2d bd f2 e3 42 bd
       0.07404546 -0.05945531 -0.04237564 -0.047580667
0002f0 73 ab 11 3d ae 11 81 bd 33 b2 a2 bc 1d 26 8f bd
       0.035563897 -0.063022 -0.019860363 -0.069896914
000300 d2 ee 4e bd 5c 82 f6 bb d9 69 96 3d 93 f5 3e bd
       -0.050520726 -0.0075228643 0.073444076 -0.046620917
000310 bd a3 a6 bc ae 4b e3 bc 75 f5 e4 bc 11 7a 16 3d
       -0.020341748 -0.027746048 -0.027949074 0.036737505
000320 68 37 8f 3d 50 e3 81 bc 3e ac 34 3d d4 1e 81 bd
       0.0699299 -0.015855461 0.044109575 -0.06304708
000330 3b c0 51 3c 2c 66 15 bd a1 ce 2d 3d a4 b1 8c bd
       0.012802179 -0.03647439 0.042433385 -0.0686982
000340 8c ea 1d bd e6 a0 1d bc 12 61 4a 3d 49 1b 86 bd
       -0.03855376 -0.009620881 0.04940898 -0.06548173
000350 ae 92 8b bd 32 1b 5f 3d 52 a1 3e 3d 89 17 1f bd
       -0.06815086 0.054469295 0.046540566 -0.038840804
000360 6a 43 db bc 02 02 75 bd 7f 12 94 3d 64 8e ad 3b
       -0.026765544 -0.059816368 0.0723009 0.0052965153
000370 74 de 4a bc 94 4c 89 3d cc 2b 10 bc b8 2a 65 3d
       -0.0123821385 0.06704059 -0.0087995045 0.055948943
000380 c8 1a 9c bc 4a 00 be bc 22 da 0f 3d 4c 0d 40 3d
       -0.019055739 -0.023193497 0.035120137 0.04688768
000390 fe ee 1f bd 05 58 e9 bc 8f 98 7a bc f5 58 d9 3c
       -0.03904628 -0.028484354 -0.015295162 0.026531676
0003a0 d6 29 82 bd 48 12 33 bd 39 05 2e bd 2c 1f 11 bd
       -0.06355636 -0.043718606 -0.04248545 -0.03543012
0003b0 c5 93 e5 bc 26 91 86 bb 00 ad 0f 3d 89 f2 90 3d
       -0.028024564 -0.0041066585 0.035077095 0.0707751
0003c0 82 74 77 bc 55 33 e0 3c cd 34 e9 3c 1b 1b 70 3c
       -0.015103461 0.027368227 0.02846756 0.0146549
0003d0 10 ea 27 3d ce f6 51 bd b0 0c e9 3c 67 3c 8f 3d
       0.040994704 -0.051260762 0.028448433 0.06993943
0003e0 d5 f5 8e 3d 26 a9 2e bd 75 e4 b2 ba 0d 9d 5a bd
       0.069804825 -0.04264178 -0.0013648408 -0.05337243
0003f0 1e 7c f1 bc 3c 58 94 bc 1c 58 90 3d 33 e8 5e 3d
       -0.029478129 -0.01810848 0.070480555 0.05442066

arith.constant5 f4 [96, 3, 3, 64]
000000 b9 ac 44 bd f5 3a 11 bd 36 01 3b bb 89 b6 b3 bc
       -0.048016284 -0.035456616 -0.0028534657 -0.021937625
000010 df ed 97 bd cf d0 59 3d 7d 80 27 3d 4c 12 0d bd
       -0.07418417 0.05317765 0.04089402 -0.034441277
000020 e7 c2 17 3c ea 79 f1 bb fd 04 72 bd f9 b3 dd 39
       0.009262777 -0.0073692696 -0.05908679 0.00042286495
000030 a6 3c 61 3d 99 8d 2e bc 89 b4 a9 bc 51 ba 72 3d
       0.05498948 -0.010653877 -0.020715969 0.059259716
000040 6e 3a 77 3b f1 b2 19 3d b1 3e b8 bc 8a 32 d1 bc
       0.0037724036 0.037524167 -0.022490831 -0.025536794
000050 1f b0 6d 3d 53 bd 75 3d a4 0c 0e bd 05 16 45 3c
       0.05802929 0.059995007 -0.034680024 0.012029176
000060 ce 5d 31 bd 85 88 67 3d ba fb 89 bd 6e 72 03 3d
       -0.04330235 0.05652668 -0.06737466 0.03209155
000070 fa 93 77 3c 0f ce 52 bd 65 47 ce bc a6 fa 35 3d
       0.015110964 -0.051466044 -0.025180528 0.04442849
000080 6f 1e fb ba 68 01 3a bc 45 9c 67 bc 25 dd 84 3c
       -0.001915885 -0.011352874 -0.014136379 0.016218731
000090 c9 cc be bb ba 0f 3d bd 78 5f 22 3c 62 56 23 3c
       -0.005822752 -0.046157576 0.009910457 0.009969326
0000a0 cf 79 97 3d 85 86 37 3d 73 e4 03 3c 48 de 8b ba
       0.0739628 0.044806022 0.008050072 -0.0010671103
0000b0 48 01 04 3d a2 7f 4e 3c a9 14 40 bd 85 26 84 3b
       0.032227784 0.012603672 -0.046894703 0.004032912
0000c0 d5 97 8d bd 0f 1d 0a bd c3 ee 16 3d a2 7e 45 bc
       -0.06913725 -0.03371912 0.036848795 -0.012054117
0000d0 92 28 76 3b 29 1e 8e bc e6 f7 38 bb 3e 7a 1d 3d
       0.0037560803 -0.017348366 -0.002822393 0.038446657
0000e0 80 4c 40 bc 0f 80 9f bc f7 51 27 bd 13 ea a2 3c
       -0.011736989 -0.019470243 -0.040849652 0.019887006
0000f0 61 c9 d0 bc 20 55 fa bc 38 0f 18 ba 7c 47 76 38
       -0.02548665 -0.030558169 -0.00058006076 5.8717545e-05
000100 0f 55 a5 bc b3 25 0a 3d 09 cb 15 3d 41 c9 93 bd
       -0.02018216 0.03372736 0.036570583 -0.072161205
000110 7f 97 79 bd f6 fa a3 3c 13 93 1b bd 61 e8 f4 bc
       -0.060935494 0.020017128 -0.037982058 -0.029895963
000120 1a 05 12 b9 c2 31 1a bd 9d 73 5b 3d 15 de 16 bc
       -0.00013925545 -0.03764511 0.053577054 -0.009208222
000130 c8 d3 72 bc 0f 3d b6 bb fe 5d 7f bd ff c4 2a bd
       -0.014821 -0.005561478 -0.062345497 -0.041691776
000140 f0 42 fc 3c dc 11 5b 3d 7c 0b 90 bd b8 22 8d 3c
       0.030793637 0.05348383 -0.070334405 0.01722847
000150 ce 6d 09 3d 32 e1 40 bd d3 59 4d 3d b5 93 22 3d
       0.033551984 -0.047089763 0.05013449 0.039691646
000160 5a 2e 9b bd 12 2a 2b 3d d5 77 8d 3c 93 c7 b3 3c
       -0.075772 0.04178817 0.017269054 0.02194575
000170 f1 57 99 3c 9e 65 3b 3d b5 ba 27 bd 46 f9 51 bd
       0.018718692 0.045751207 -0.040949542 -0.051263116
000180 69 61 44 3d 5c 8c 08 3d ef b0 a9 3b 83 5f c4 3c
       0.04794446 0.033336982 0.005178563 0.023971325
000190 3b 8a 19 3d e9 ae e6 3c 17 2f 7b bd 13 ea 63 bd
       0.037485342 0.028159576 -0.061324205 -0.055643152
0001a0 55 d0 40 bd 8f bf 88 bd be 19 ed bc fd 13 2a bd
       -0.04707368 -0.06677162 -0.028942939 -0.04152297
0001b0 cd 55 cf bc 3f 32 e7 bb bc 61 33 3d 56 42 12 bd
       -0.025309468 -0.0070555503 0.04379438 -0.035707794
0001c0 04 c3 71 bd ba 12 74 bd bd 11 07 3c 8d 7d 84 bd
       -0.059023872 -0.05958817 0.008243975 -0.064692594
0001d0 78 ce 56 3d 30 23 ec bc d2 15 e8 bc b0 c3 34 3d
       0.052442998 -0.028825372 -0.028330717 0.044131935
0001e0 33 8c b8 3c f3 30 3c bd 82 d9 2f bd 9d 1c 7a bd
       0.02252779 -0.04594512 -0.04293204 -0.061062444
0001f0 d5 f9 fd 3b 81 80 62 bd 16 91 1b bd 7e 36 49 3d
       0.0077507296 -0.055298332 -0.03798016 0.049124233
000200 9a 84 9c 3c 8e a8 02 3d 8e f1 b9 3c ee 41 b9 3b
       0.019106198 0.031899028 0.02269819 0.0056536114
000210 6b da e5 39 53 fe aa 3c 2b 42 09 bc c8 f1 e5 bc
       0.00043841018 0.020873224 -0.008377592 -0.028069392
000220 e8 69 f6 bb 69 89 59 bd aa 3a 69 bd f9 6e 03 3d
       -0.007519949 -0.05310956 -0.056940712 0.032088254
000230 2c 10 d2 bc 7e 05 10 bd ba 33 ed 3c 31 3b 91 3d
       -0.025642477 -0.035161488 0.02895533 0.07091368
000240 46 d6 74 3c f1 67 4a bd a9 ab 3c bd a3 f1 52 bc
       0.014943665 -0.049415532 -0.046062145 -0.0128749935
000250 84 92 f1 3c 14 d6 aa 3c fc 35 89 3d a9 7c 8b bd
       0.02948881 0.020854034 0.0669975 -0.068108864
000260 19 dc bd bc 6f 42 36 bc b1 27 1c bd 09 1a cf bc
       -0.02317624 -0.011124237 -0.03812379 -0.02528097
000270 4f ca 51 bd e1 a9 25 bb 4d 88 b3 3c 6d 50 72 bc
       -0.051218327 -0.0025278258 0.02191558 -0.014789683
000280 55 a3 54 bd aa 58 6a bd 50 24 23 bd b7 2b 41 bd
       -0.051913578 -0.057213463 -0.039829552 -0.04716083
000290 71 b6 29 3d 08 da aa 3c da 63 12 3d 9b 1d a6 bc
       0.041433755 0.020855919 0.035739757 -0.020277789
0002a0 8c 5d 0a bd e8 bf 26 3d a5 31 4b 3d 02 5c 0e 3d
       -0.03378062 0.04071036 0.04960789 0.034755714
0002b0 f0 79 37 3d 05 7a ba bc fe af 0f 3d 14 0b d9 3c
       0.044794023 -0.022763262 0.03507995 0.02649454
0002c0 c0 85 5c bb f3 f3 81 bd 2e 4c 41 bd 6d 77 74 bd
       -0.0033649057 -0.06345358 -0.04719179 -0.059684206
0002d0 00 c5 f8 3c 2a 3c c3 bc 2c 0a 7e 3c 8f 65 01 3d
       0.030367374 -0.0238324 0.015505355 0.031590994
0002e0 66 6e bb 3c 12 92 57 3c 6e 61 cd 3c ee 80 f1 3c
       0.02287979 0.0131573845 0.025070872 0.029480424
0002f0 6e 3d 34 3c 52 95 05 3d 73 ba 0a 3d 6d 2e 84 3c
       0.011000974 0.032613106 0.033869218 0.016135419
000300 df d2 b6 bc 81 73 91 3c d1 98 52 bd ab 94 57 bb
       -0.022317348 0.017755272 -0.05141527 -0.003289501
000310 98 e2 b2 bc 5d d4 fc 3c e6 21 56 3c 68 86 92 3d
       -0.021836564 0.030862981 0.013069605 0.07154542
000320 09 09 2c bd 54 6d 67 bd c5 ac d3 bc 44 ed 5f bd
       -0.042000804 -0.056500748 -0.025839219 -0.054669634
000330 38 4c 09 3d 35 70 71 3c 17 7b 57 3d e6 96 8b bc
       0.033519953 0.014736225 0.052607622 -0.017039727
000340 02 b5 95 3c 90 b8 13 bd 59 1b 38 3c cb 0b 7b 3d
       0.018274788 -0.036064684 0.011236989 0.061290544
000350 55 75 24 bc 11 99 14 3d 0b f7 62 bd 43 0c 79 3c
       -0.01003774 0.036278788 -0.05541138 0.015200677
000360 7a be 1d 3d e1 59 83 bc e2 2d d2 3b f6 71 90 3c
       0.03851173 -0.016034069 0.006414161 0.017632466
000370 e3 a0 8b 3c 20 16 06 bd c9 54 36 3d 6a 63 9a 39
       0.01704449 -0.032735944 0.04451445 0.00029447238
000380 37 6a f3 bc 91 ae 58 bc c1 c8 16 bd 1b f2 48 bd
       -0.029713733 -0.013225214 -0.036812548 -0.049059015
000390 5a 52 a2 3b 17 53 63 bb e6 95 94 3d 62 2a 13 bd
       0.0049536647 -0.0034686977 0.07255153 -0.03592909
0003a0 2c 80 26 bd e3 4e 88 3c 34 ac 29 bd 3c 35 43 bc
       -0.040649578 0.016639179 -0.04142399 -0.0119145475
0003b0 6e ca 9b 3a a3 ec 66 bd 62 0f cb bc 0f 31 af bb
       0.001188589 -0.056378018 -0.024787609 -0.0053464244
0003c0 2f e4 36 3d 31 65 4d bd 4c 4c 5a bd 63 3d 58 bb
       0.044651207 -0.05014533 -0.05329542 -0.0032995574
0003d0 90 82 56 bd c5 ac be bc c5 a6 9f 3a e2 73 55 bd
       -0.052370608 -0.023275742 0.0012180438 -0.052112468
0003e0 88 a2 bc 3c 92 d4 02 3d 54 ae e2 3c 62 11 53 3d
       0.02302672 0.031941004 0.027671017 0.05153025
0003f0 98 56 62 3d 25 a6 84 bd b0 bf f6 3c 67 d6 e9 bc
       0.055258363 -0.06477002 0.0301207 -0.028544618

arith.constant6 f4 [64, 3, 3, 64]
000000 3c b5 54 3d 86 5d 0d bd 64 5f 48 3d 3e 1c 83 3c
       0.05193065 -0.03451302 0.048919097 0.016004678
000010 7d df 9c 3c ea 3c 8b bb ab 55 15 3c 61 83 07 3d
       0.019149536 -0.004249205 0.009114663 0.033084277
000020 ea f9 6c bd 24 3b 2a 3d ce 7c 62 bc 90 94 5c 3d
       -0.057855524 0.041560307 -0.013823701 0.053852618
000030 c0 ba 1d bc 9c 73 69 bd 65 72 6a 3c 3d 0b 2e 3c
       -0.009627044 -0.05699502 0.0143095 0.010622797
000040 fc db 89 3d 5d c1 38 bd 0e 8a 92 bd 45 6b 50 bb
       0.06731412 -0.04510628 -0.07155238 -0.003180222
000050 16 19 54 bd 01 40 93 bd 80 26 83 3d b2 0b 96 bd
       -0.051781736 -0.07189942 0.06403828 -0.073264495
000060 21 f8 f3 bc 34 e4 87 3c c1 08 0b bc 6d ca 88 3c
       -0.029781403 0.016588308 -0.008485974 0.016698087
000070 10 a0 57 3c 53 e4 6e 3d fc 6b 56 3d ec 62 41 bc
       0.0131607205 0.058323216 0.052349076 -0.01180337
000080 09 0d 35 3d c1 9a da bc d7 5f f8 bc 49 5a 3e bd
       0.044201884 -0.02668512 -0.030319137 -0.04647282
000090 fb 3c 10 3d e9 c1 ae bb 60 fa 3f 3d 7c fc 01 3d
       0.035214406 -0.0053331745 0.046869636 0.03173493
0000a0 13 0e 02 bc 07 7c 46 3d 4c e5 b0 3c cb 4e 33 bd
       -0.007937926 0.048458125 0.021593712 -0.043776315
0000b0 1c ca f7 3c a9 86 e4 3c 1e e1 d9 3c 15 0d 9d 3c
       0.03024774 0.027896242 0.026596602 0.019171277
0000c0 36 1f 8d bd b8 4f a1 3d 73 e7 45 bd 35 fa 64 3d
       -0.06890719 0.07876533 -0.04831643 0.05590268
0000d0 3e df 8d bc 8a 08 b0 3c a3 10 53 bb ab bd 1a bd
       -0.017318364 0.021488447 -0.0032205961 -0.037778538
0000e0 6f db 16 3d 19 a0 b8 3c 9d ca 24 bc 7a 70 e4 3c
       0.036830362 0.022537278 -0.010058072 0.027885664
0000f0 7e 81 4e 3d 63 58 74 bd b8 fd 15 3c 3d 3b 03 bd
       0.050416462 -0.059654605 0.00915473 -0.032038916
000100 a9 09 62 bd 7d 53 bc bb ad cf 75 3d 63 79 50 3d
       -0.055184994 -0.0057472573 0.06001251 0.050897013
000110 7e f1 64 3d aa 58 19 3d 1f 6f 96 bd 3b 00 13 3d
       0.055894367 0.037438072 -0.073454134 0.03588889
000120 27 4f 8a bd e2 2c 08 bc 0a 62 79 bd 55 d4 a2 3d
       -0.06753378 -0.008311482 -0.060884513 0.07950655
000130 c5 12 6d bd d9 60 19 bd c1 17 0c 3d de 9c f1 bc
       -0.05787923 -0.037445877 0.03420234 -0.029493745
000140 cf 58 3b bd 34 3e fe 3c fb 3e 0a 3d 3f 7b 22 3c
       -0.04573899 0.03103552 0.03375147 0.0099170795
000150 05 47 f3 3c 0b af 5f bc c5 95 83 3d 9c 06 05 bd
       0.02969695 -0.013652573 0.06425051 -0.032477006
000160 58 5d f3 ba 15 3d 97 3d 71 1f c2 3c 56 bc 79 bd
       -0.0018567247 0.07384697 0.023696633 -0.060970627
000170 75 60 65 3d 17 8c a6 3c 5f b9 ba bc e9 6b b1 bc
       0.05600019 0.020330472 -0.02279347 -0.0216579
000180 31 22 6a bd 24 53 c6 bb b1 07 41 3d ca c2 57 3d
       -0.057161514 -0.0060523916 0.047126476 0.052676
000190 2f a9 b8 3c b6 b4 09 3d 23 f7 4f bc 3d 12 64 3c
       0.02254161 0.033619605 -0.012693199 0.013920364
0001a0 de 12 69 bd 1c 5f 11 bc a0 03 02 bd 55 e3 36 bd
       -0.05690276 -0.0088727735 -0.03174174 -0.044650394
0001b0 9d a4 1d bd ba ac 05 bd 0f 6c 9e 3d a6 ca 8c 3d
       -0.038487066 -0.032635428 0.07735454 0.068745896
0001c0 7e 02 fd 3c 05 db 7f bd 01 5a 75 bc 6a eb 3c bc
       0.030884977 -0.062464733 -0.014975072 -0.011530736
0001d0 be d2 ea 3b bf 5f 0d bd c8 ea 80 3d 49 00 6d bd
       0.0071662357 -0.03451514 0.06294781 -0.0578616
0001e0 1f 2b dd bc 95 be da b9 27 fd 16 3d 56 cc 8a bd
       -0.0269981 -0.00041722195 0.03686252 -0.06777255
0001f0 50 e1 3a bd 71 68 d2 bc 6b e1 63 3d 4f 28 a7 bb
       -0.04562503 -0.025684567 0.055634897 -0.0051012407
000200 0f b7 97 3d f5 8a 0f bd e2 1d 44 3d c9 1f 0f 3c
       0.074079625 -0.03504463 0.04788006 0.0087356055
000210 52 60 ad 3d 12 99 87 bd 67 92 62 bd 5b 36 1f 3d
       0.08465637 -0.06620993 -0.0553154 0.038870197
000220 fa c3 7e bc 2d a0 ad 3c 84 83 7c 3d 2c e6 5b bd
       -0.015549654 0.021194542 0.06164886 -0.053686306
000230 fe dd 1b 3d 6b e0 5d bd 89 74 ad bc f4 01 34 3d
       0.038053505 -0.0541691 -0.021173732 0.043947175
000240 da db 49 3c 4b 4a 4d 3c 6c 6d d9 3b 98 81 b0 3c
       0.012320483 0.01252992 0.0066353586 0.02154617
000250 f5 05 94 3c 3f 7e 8e 3d 01 e3 9b 3c 8b b9 d4 bc
       0.018069247 0.06957673 0.019029142 -0.02596738
000260 51 ba 7f bc 9c c7 1c 3d 96 c2 33 3d 0c 9e 60 3d
       -0.015608386 0.0382763 0.043886743 0.054838225
000270 42 3f bd 3c a5 ba de 3a 04 a6 89 3d 05 e3 0e bd
       0.023101453 0.001699288 0.06721118 -0.03488447
000280 14 95 60 3d 8c dd b1 3b d1 46 81 bc 85 53 3a bb
       0.054829672 0.005428022 -0.015780838 -0.002843113
000290 b8 31 35 3d 70 0b 20 3d bf 7a 0c bd f1 5b 32 bd
       0.04423687 0.039073408 -0.034296747 -0.043544713
0002a0 8e 30 79 3d 57 99 a3 bb ff fa a8 bc a5 a1 b5 3c
       0.06083732 -0.004992645 -0.020627497 0.022171805
0002b0 18 7c 9a 3d ed 8c ba bb c6 0e c1 bb 37 4b a8 3b
       0.075432 -0.005693069 -0.0058916537 0.0051359194
0002c0 b9 3f 5e 3d 7a d5 3a 3d 62 33 64 bd a2 8d 89 bc
       0.05425999 0.045613743 -0.055713065 -0.016791169
0002d0 c5 26 2d 3d 0b 73 b9 3c 74 b3 3c bd 21 91 3c bd
       0.0422733 0.022637865 -0.046069577 -0.046036843
0002e0 7f 16 61 3d 67 bb 6a bd 80 1f 98 38 a3 8f 2d bd
       0.054953095 -0.057307627 7.253792e-05 -0.04237331
0002f0 97 e4 f5 bc 2a 34 0c 3d 47 0b 3c 3d e2 ad ef bc
       -0.030016227 0.034229435 0.045909192 -0.029257718
000300 8f 81 65 bd 5f af 9c 3d 87 90 86 3d ea b5 39 bd
       -0.05603176 0.07650637 0.06570535 -0.045339502
000310 7c 5a 8b 3d 8b f8 07 bd ef 22 8c bd db 3d df bc
       0.06804368 -0.033196013 -0.068426006 -0.027251175
000320 c1 5f 71 bd 1a 79 78 3b 4d 2d 8e bc d4 e9 72 3d
       -0.05892921 0.003791398 -0.017355585 0.059305027
000330 e3 6f a2 bc 6c 3d 3d 3c 50 78 05 bd a4 6b 48 bd
       -0.019828742 0.011550289 -0.032585442 -0.04893078
000340 d5 43 c0 bc 9d ec 37 bd 06 e5 25 bd dc 91 da bc
       -0.023469845 -0.044903386 -0.040501617 -0.02668088
000350 e8 90 5b 3b 06 b7 43 bd d3 99 65 3d f3 5b 07 bd
       0.003350312 -0.047781967 0.0560549 -0.033046674
000360 07 1a 89 3d ae f2 78 bd a1 07 88 bc 1b c7 32 bd
       0.066944174 -0.060778312 -0.0166052 -0.043646913
000370 00 c2 92 b8 70 c3 8e bb 6d 32 d6 bb 4d cb 08 bc
       -6.997958e-05 -0.004356794 -0.006536773 -0.008349252
000380 aa 68 5d bd dc b7 d9 bc 6b af e6 3b 2c f2 3a bd
       -0.054054894 -0.026576929 0.0070399544 -0.04564111
000390 9e 92 3c bd 03 38 7b bd bf 86 38 bd 22 47 ec bc
       -0.046038263 -0.061332714 -0.04505038 -0.028842513
0003a0 05 47 92 bc dd 8c e2 3c af 12 8b bd 02 0c 76 bd
       -0.01785613 0.02765506 -0.06790673 -0.060070045
0003b0 90 b6 00 3d 8f 3f ea bc fe 69 0a 3d 6f d3 9c 3d
       0.031424105 -0.02859476 0.03379249 0.07657515
0003c0 f2 aa e5 bc 41 65 7d bd a3 40 83 3d c1 ea 8a 3d
       -0.028035615 -0.06186414 0.06408813 0.06783057
0003d0 08 3c 86 3c f2 6a c1 ba fd 32 82 3d 20 61 8e 3d
       0.016386047 -0.0014756604 0.063573815 0.06952119
0003e0 21 f7 8a 3b 0e a5 80 3c 23 a8 e7 bc ec d5 7c bd
       0.004240886 0.015703704 -0.028278416 -0.06172745
0003f0 57 25 5e bd 73 64 0b bd 1b 05 70 bd da 3d 43 bd
       -0.05423483 -0.034031343 -0.05859862 -0.047666408

arith.constant7 f4 [64, 3, 3, 32]
000000 21 8e 96 bd cb 72 c2 3c f4 5f d6 3b 8f bd 5d bd
       -0.07351328 0.023736378 0.0065422 -0.054135855
000010 2a 0a ed bc ee 3d 84 bc 5e 38 8c 3d d5 d7 84 3d
       -0.02893551 -0.016142812 0.06846689 0.06486479
000020 a0 cc 80 3d 02 15 30 bc 40 74 12 bd 79 cf 42 3d
       0.06289029 -0.010747196 -0.035755396 0.047561143
000030 ac 24 24 3d e5 99 69 bd 03 4a 7e bd 62 5e ae bb
       0.040074036 -0.05703153 -0.0620823 -0.00532131
000040 2b 7f 95 bd f6 4f 1c bd 4c a0 9f bd c9 d8 94 bd
       -0.07299646 -0.038162194 -0.07794246 -0.07267911
000050 36 b6 64 3d 85 95 9b 3a d4 14 4b 3d 6f cf 83 3d
       0.055837832 0.0011870122 0.04958041 0.06436049
000060 c4 de 08 bd ee bf b9 3b 48 4e 8b 3d be 7d 8d 3d
       -0.03341557 0.0056686318 0.0680204 0.06908749
000070 88 0e f0 3c 89 0d 23 3d 48 7a a7 3d f8 e6 94 bc
       0.029303804 0.03980783 0.0817762 -0.01817654
000080 02 86 b7 ba 2e 72 8c 3c 50 2a ce 3c b7 6b 22 bb
       -0.001400173 0.017144289 0.02516666 -0.0024783441
000090 f5 da af bc 9a 30 92 bc e9 05 3e 3d 09 97 87 3d
       -0.021466712 -0.01784544 0.046392355 0.066206045
0000a0 25 06 64 3d 18 71 92 bd 5c bb b3 3b 66 06 8f bd
       0.055669922 -0.07150477 0.0054849815 -0.06983642
0000b0 7a c1 60 bd d4 28 86 bd ef 3f 76 bd 70 44 4f 3d
       -0.054872014 -0.06550756 -0.060119566 0.050602376
0000c0 2a 63 c8 3c ac 26 8d 3c d9 ad 63 bd 2a 33 49 bd
       0.024461348 0.017230354 -0.055585716 -0.04912106
0000d0 c6 86 ab 3d 29 9d 1e 3d 6a 9f 88 bd b8 9c d6 bb
       0.08375315 0.0387241 -0.06671031 -0.006549444
0000e0 01 ae 71 3d 61 41 63 bd 83 1c fd 3c 4c 6d 09 3d
       0.059003834 -0.055482272 0.030897385 0.0335515
0000f0 b4 9d 5e bd a9 e1 20 bd b0 2d 37 3d ae e7 94 3b
       -0.054349616 -0.039277706 0.044721305 0.00454422
000100 ae 3c 9d 3c 76 da 6d 3d c6 5f 9d 3c 9b f3 24 3c
       0.019193973 0.05806967 0.019210707 0.010067846
000110 f2 07 ae bd 0a 77 86 3d 7f c0 0d 3c 05 1d a0 bd
       -0.08497609 0.06565674 0.008651852 -0.07818035
000120 d1 ac a9 bd 2b cc 77 bd 7b 87 b4 bc 9d 22 a8 bd
       -0.08284915 -0.060497444 -0.022037258 -0.08209727
000130 d2 d0 bd 3c c8 80 59 bd bf 54 16 bd bd b6 88 3c
       0.023170862 -0.05310133 -0.036701914 0.016688699
000140 49 cf a0 3d 69 73 ec 3c 0e 8c 84 3d 44 63 98 3d
       0.078520365 0.028863626 0.06472026 0.074408084
000150 11 21 8d bc f2 d7 99 bd af bc 2c 3d e3 89 79 bd
       -0.017227681 -0.075118914 0.04217213 -0.060922515
000160 aa d6 c3 3d 4c 97 a1 bc b3 26 ec bc 49 c5 92 bd
       0.09562428 -0.019725464 -0.028827047 -0.071665354
000170 ca 8b be 3b ad 3d 2b 3d af 88 9f 3d 77 f8 ad 3c
       0.005815004 0.041806865 0.07789742 0.021236641
000180 c0 75 a7 bb 46 5c 3e 3d 3c fb 2c 3d 78 ac b6 b8
       -0.0051104724 0.046474718 0.042231783 -8.710561e-05
000190 9d 17 57 bd c8 d3 12 bb 48 96 01 3d d1 74 55 bd
       -0.052512754 -0.0022404063 0.03163746 -0.052113358
0001a0 07 27 8a 3c 5f 84 a4 3d 1f 97 aa bd 91 c4 88 bd
       0.016864313 0.0803306 -0.08329605 -0.06678117
0001b0 ee 1f 29 3d 72 f8 c2 3c d6 83 a3 3d 24 f9 8e 3c
       0.041290216 0.023800109 0.0798413 0.017452784
0001c0 bc b5 93 bd c4 41 59 bb b6 bc ac 3d 57 fb 29 3d
       -0.072123975 -0.0033150772 0.08434431 0.041499462
0001d0 c8 5e 0a bd 99 a8 8c bc 46 d7 9b 3d 8f 06 43 bd
       -0.033781797 -0.017170237 0.076094195 -0.047613677
0001e0 8b b2 6c bb fa e6 3d bd 17 41 83 3d 27 b7 34 3c
       -0.0036117162 -0.046362855 0.06408899 0.011029995
0001f0 cd f8 7c bd fc cd 8b bc 74 00 8d 3d 25 4e 8a bd
       -0.061760712 -0.017065994 0.06884852 -0.06753186
000200 04 07 14 bd ea 59 89 bd 6a 5d b0 3c 2c 55 92 bd
       -0.036139503 -0.06706603 0.021528918 -0.071451515
000210 13 b7 44 bd 1c 17 7b 3d 57 01 3e 3c 5f a4 00 3b
       -0.048026156 0.061301336 0.011596999 0.0019629223
000220 92 bc 90 bd f8 87 96 3d 6a bf 84 3d 25 cc fd bc
       -0.07067217 0.07350153 0.06481822 -0.030981133
000230 84 bf 3f 3d 0c 21 55 3d df 9f 7a bd 25 c2 93 bc
       0.046813503 0.05203347 -0.06118762 -0.018036911
000240 d0 e0 58 3d 87 39 a4 3d d2 b0 26 bd 46 c2 8d bd
       0.052948773 0.08018785 -0.040695973 -0.0692182
000250 59 23 24 3d 3c ce 02 bb 7c 95 4a 3c 77 54 d1 bc
       0.040072773 -0.001995935 0.012364741 -0.025552971
000260 54 c1 b0 3b 6e a2 8e bd ac 94 92 bd 70 d3 95 bc
       0.0053941403 -0.06964575 -0.07157263 -0.018289298
000270 9e 4d 44 3d 06 7c 0a 3d 09 57 a4 3d ca 3c b3 3c
       0.047925584 0.033809684 0.08024413 0.021879572
000280 83 be 8f bc b8 49 95 3c f9 9a 6a 3d 70 a1 78 bc
       -0.017546898 0.018223628 0.0572767 -0.015175208
000290 d1 d2 35 3d ea ed a4 3c 40 54 93 bb c1 68 0b bd
       0.044390503 0.020132978 -0.0044961274 -0.034035448
0002a0 c4 df 73 3d d8 ba 6b bd 6e d6 b4 bd 7a 6c 8e bd
       0.05953957 -0.057551235 -0.08829962 -0.06954284
0002b0 a9 0b 8c bd b0 da 25 bd 08 0c 8f bc 09 2f 11 bd
       -0.068381615 -0.04049176 -0.017461792 -0.035445247
0002c0 5d 90 0e 3d d0 ee 7f bd 75 26 40 3d 99 d8 d8 bc
       0.034805644 -0.06248361 0.046911675 -0.02647047
0002d0 17 d2 2c bd 4d 6e a5 3c c2 33 9e 3d 41 f3 98 bd
       -0.042192545 0.020194197 0.07724716 -0.07468272
0002e0 bf 78 55 bd 0a 29 ac bd f8 cd 93 3d ec 0f f7 bc
       -0.052117106 -0.08406265 0.0721702 -0.03015896
0002f0 49 52 33 3d 93 43 b7 bd d8 b8 95 3d a3 35 89 ba
       0.043779645 -0.08948436 0.07310647 -0.0010468255
000300 94 9d 48 3d 1c 0b 83 3d b1 3d 71 bd d3 2a 2c 3d
       0.048978403 0.06398603 -0.058896724 0.042033028
000310 0f b0 ea bc 76 03 2f 3d 0d e1 9c bd 85 53 8a 3d
       -0.028648404 0.04272791 -0.076601125 0.06754211
000320 1e 0b 53 bd 26 30 b8 bc 23 5f 80 bd ae a4 00 bd
       -0.051524274 -0.022483896 -0.06268146 -0.03140705
000330 01 30 dd 3c d3 f0 92 3c 4e ff 1c bd 9d c9 a3 bd
       0.02700043 0.0179371 -0.038329415 -0.07997439
000340 f1 95 96 3d a3 dc 97 bd 57 a7 5e 3c ee ec c1 bc
       0.07352818 -0.0741513 0.013589702 -0.023672547
000350 cb ed 8f 3c 30 3f 92 3d 50 f8 34 3d f3 42 55 3d
       0.017569443 0.07140958 0.04418212 0.0520658
000360 f5 ac be 3c 85 64 ca bc 49 a7 1a bd 21 ed 8a 3b
       0.023275832 -0.024706135 -0.03775719 0.0042396937
000370 c2 ba 14 3d 75 72 43 bc 6c 59 34 bd 7d f7 6a bd
       0.03631092 -0.011929144 -0.04403059 -0.05736493
000380 5d ab 33 bd a5 34 a1 3c 6c b1 04 bd fb 67 e1 3c
       -0.043864597 0.019678423 -0.032395765 0.027515402
000390 63 23 9f bd ce 31 36 bd 47 1f 3b 3d 4d ec ed bb
       -0.07770421 -0.04448109 0.045684125 -0.0072608353
0003a0 08 04 e5 bb c2 3b c1 3c 07 c1 6a 3d 05 1b 22 3d
       -0.006989006 0.023588065 0.05731299 0.03957655
0003b0 b5 48 55 bd 6b 14 ff 3c 2f f2 95 3d f8 e2 53 3c
       -0.052071292 0.031137666 0.073215835 0.012932532
0003c0 d2 60 32 3d ad 90 91 3b 40 64 a2 3d 7c 6f 96 3b
       0.043549366 0.0044422955 0.079292774 0.0045909267
0003d0 73 80 b4 3d 13 d2 f7 bb 63 68 90 bd 0b c5 06 3d
       0.08813562 -0.0075628846 -0.0705116 0.03290276
0003e0 a5 46 2a bd e3 8c 03 bd f6 5a 00 bd 6b d0 ac 3d
       -0.041571278 -0.032116782 -0.031336747 0.0843819
0003f0 4f b8 20 3d 1f 36 fa bc 10 5f 3e 3a a9 49 0e 3d
       0.03923827 -0.030543385 0.000726209 0.034738217

arith.constant8 f4 [4, 128]
000000 85 14 e7 bd 46 48 56 3d 06 a8 67 be d5 4d 3b 3d
       -0.11283211 0.05231502 -0.2262269 0.045728523
000010 a8 09 ba 3d b4 1d 1a be 8e df 8f 3d 2f b5 62 be
       0.09083873 -0.15050393 0.070250615 -0.22139429
000020 85 53 16 3c f8 a0 62 3e 45 ac 72 bb 58 cd b0 bd
       0.009175186 0.22131717 -0.003702895 -0.08632916
000030 53 1a 01 be 2f ac 9b bd e6 f3 bb 3d 34 43 1c be
       -0.12607698 -0.07601201 0.09177379 -0.15260011
000040 6d 8c f6 bd 85 e9 14 bd cb f3 47 3d c2 f1 25 3b
       -0.12038503 -0.036355514 0.048816483 0.00253211
000050 c5 96 17 3e eb 33 03 3e 78 b1 79 bd 62 09 1b bd
       0.14803608 0.12812774 -0.060960263 -0.037850745
000060 52 60 c5 3d 8d 2c 22 be 80 62 e2 bd c4 4c fb 3d
       0.09637512 -0.15837307 -0.11053944 0.12270501
000070 1d 1f a4 bd 8f e6 2b be bd 55 1a be db e2 46 3c
       -0.08013747 -0.1678717 -0.15071769 0.0121390475
000080 fb e8 10 bc 7f 5c 87 bb 03 94 dc 3d 57 e0 0e 3e
       -0.008844609 -0.0041308994 0.107704185 0.13952766
000090 f6 aa c0 3d a6 dd 27 be 8e 60 3d 3d 5c fc 73 bd
       0.09407608 -0.16393146 0.04623466 -0.05956684
0000a0 59 3a a8 38 11 cf ed 3c 7f c8 a0 bd 5e cb 66 bd
       8.021732e-05 0.029029401 -0.078507416 -0.05634629
0000b0 92 aa 2c 3e 00 f3 83 bd 7c 6d 29 3e 25 17 4d 3e
       0.16861942 -0.06442833 0.16545671 0.2002836
0000c0 7d 84 4d 3e a0 7c ab bd fc 17 41 bd c3 97 f0 bd
       0.20070072 -0.0837338 -0.047142014 -0.11747696
0000d0 6e 55 eb bd a6 9e 62 be 6c 63 53 bc 79 72 9d bc
       -0.11490904 -0.22130832 -0.012902122 -0.019219624
0000e0 1f 3b 7f 3d f5 f2 15 3b af c3 e7 3d 78 12 c6 3d
       0.06231224 0.002288041 0.113166206 0.096714914
0000f0 8b 55 e6 bd a0 f3 53 3e 34 ad d9 3d a7 a3 39 bd
       -0.11246785 0.20698404 0.10628739 -0.045322087
000100 7f 59 6a 3d 4b 88 38 3e 5d 8b 16 be 36 5f b7 3d
       0.057214256 0.18020742 -0.147016 0.08953707
000110 f9 86 f0 3d 51 43 43 3d a3 64 28 3d a0 1c bd 3d
       0.11744494 0.04767162 0.0411116 0.092339754
000120 4c e3 9d 3d 81 2c c7 bb b4 5c 16 3e e1 6e b1 3c
       0.07709369 -0.0060783033 0.14683801 0.021659316
000130 49 c0 89 bd 2e d0 c3 3d 84 1b 3a be 8f fb 28 3e
       -0.067261286 0.095611915 -0.18174559 0.16502212
000140 c8 b5 20 3d 03 7b 07 be 31 a4 45 be be fe 9d bc
       0.03923586 -0.13230519 -0.19300915 -0.01928651
000150 49 47 54 3e 9b 6c 63 be 0b 98 44 3e af ae 44 3e
       0.20730318 -0.22209398 0.19198625 0.19207262
000160 dd 03 3e 3c 4a c4 22 3e a4 36 e5 3d 7e fc 8f 3d
       0.011597601 0.15895191 0.111920625 0.07030581
000170 48 2c bc 3a 26 fb 6a 3d 49 d1 34 3e 17 ac b7 bd
       0.0014356459 0.05736842 0.17657961 -0.089683704
000180 74 7e 09 3e 85 6d 1a be 1d 51 6b 3a 57 0c cb bb
       0.13427144 -0.15080841 0.00089766254 -0.0061965394
000190 16 a4 d3 bd 7e 5d a2 3b 6d 7d 23 3d c7 ea 9e bd
       -0.10334031 0.004954993 0.039914537 -0.07759624
0001a0 cb 9e 0d be d8 84 34 3d c6 75 3f bc f2 6d 34 3c
       -0.13830106 0.044072002 -0.011685794 0.011012541
0001b0 b6 e4 36 3c 50 e2 11 3d bb 39 46 3e b8 b7 20 be
       0.011162927 0.03561622 0.1935796 -0.15695083
0001c0 3b d3 55 3d c9 50 2a 3e 26 61 d4 3d 36 33 8d 3d
       0.0522034 0.1663238 0.10370092 0.06894533
0001d0 62 af 49 be 38 f3 ec 3d 6f 19 18 bd ad 89 da bd
       -0.1969581 0.11569828 -0.03713363 -0.10670791
0001e0 34 41 10 3e bc 0d 0a be fb da 83 3d 56 4c bd 3d
       0.14087373 -0.13481802 0.064382516 0.092430755
0001f0 14 c1 94 bd 8f f9 a2 bb 52 31 0c 3e a9 58 14 be
       -0.07263389 -0.0049735974 0.13690689 -0.14486946
000200 7b 7b 2c 3e 50 99 5e 3c 94 7a af bd f8 5d 33 be
       0.16843979 0.013586357 -0.08568302 -0.17516315
000210 1c 72 7a bd af 6d 23 3e 71 86 4a 3e 02 a5 b4 bc
       -0.06114398 0.1595981 0.19777848 -0.022051338
000220 6c 61 03 be 98 05 45 3e 28 f9 b8 3d e0 19 55 bd
       -0.12830132 0.19240415 0.09031898 -0.05202663
000230 f5 3d b6 3c 8a 87 43 3e f9 ad 11 3e 8d 5e 4d be
       0.02224634 0.19094673 0.14226522 -0.200556
000240 5a 45 d9 bc 3d fb 82 bd 7c f9 39 be dc 83 13 3d
       -0.026522327 -0.06395576 -0.18161577 0.036014423
000250 a4 63 9d 3c 08 39 15 bd d0 11 d4 bd 93 3a 54 3e
       0.019212551 -0.036431342 -0.1035496 0.2072547
000260 80 7c 95 3c 70 42 0c 3e d5 14 83 bd d9 03 4a 3e
       0.018247843 0.13697219 -0.06400458 0.1972803
000270 1d 0e 35 bb 74 ba 1e be dd 45 c2 3d 47 29 32 3e
       -0.002762682 -0.15500814 0.094859816 0.17398559
000280 2a c7 04 3d 27 f0 48 3c 12 19 30 3e 61 db 94 bd
       0.0324165 0.012264288 0.17197064 -0.07268406
000290 2a 5e c6 3d fc 03 fa 3d 4d 50 f3 bd 56 e8 94 bc
       0.09685929 0.12207791 -0.118805505 -0.018177193
0002a0 d9 78 b1 bd 2f 92 fe 3d 21 41 12 3b 9f b3 5a bd
       -0.08665628 0.12430226 0.0022316652 -0.053393956
0002b0 04 40 31 3e 20 00 b5 3b f2 ac f2 3d fe e1 2d 3d
       0.17309576 0.0055236965 0.11849393 0.04245185
0002c0 e2 19 54 3e f4 8c 7a bd 4e fa a1 3d b1 d1 de 3d
       0.20712999 -0.06116958 0.0790907 0.10879839
0002d0 88 2e 60 3c de b9 0b be f3 1e 62 3d 9b a2 1c be
       0.013682969 -0.13645121 0.055205297 -0.15296404
0002e0 0a 58 52 3e 72 5c 3d 3e 75 4e 0d bd 22 d0 4a 3e
       0.20541397 0.18492296 -0.03449865 0.19805959
0002f0 04 0d 3d bd cc 8e 2a 3e c9 ee 09 be 33 44 55 3e
       -0.04615499 0.16656035 -0.13469996 0.20826797
000300 19 2a 90 bd 32 7b 6f bd 79 f9 88 3c b4 2d 40 bc
       -0.070392795 -0.058467098 0.01672052 -0.0117296465
000310 02 a8 32 be 0f 55 d4 bd 00 c6 00 3e 13 0a cd 3d
       -0.17446902 -0.10367786 0.12575531 0.10011687
000320 33 02 78 3c f9 ad 8c bd f0 1f 15 3e 36 eb 5f bd
       0.015137243 -0.0686912 0.14562964 -0.054667674
000330 87 9c a9 bd 46 ff fa bd a1 ee 26 be ea 23 29 3e
       -0.08281808 -0.12255721 -0.16301967 0.16517606
000340 ba be da bb c6 f5 e5 3d 50 e4 06 be 8b 24 34 bd
       -0.0066755684 0.11228518 -0.13173032 -0.043980163
000350 cf f8 6e bd b5 ca 85 3b 7d 37 da 3d 3a 71 b7 3c
       -0.05834275 0.0040830025 0.10655115 0.022392858
000360 fd 5c 42 3e 4b b7 03 3c 1b 83 36 3d a8 7c 40 3e
       0.18980785 0.008039306 0.044558626 0.18797553
000370 5b c7 64 3d e1 27 31 3d 0f 6d f0 bd 92 c1 ee 3d
       0.055854183 0.043250922 -0.11739551 0.11658014
000380 65 d5 7d bd 72 dc 49 3e 80 93 0c be 51 16 b8 3d
       -0.061971087 0.19713 -0.13728142 0.089886315
000390 84 1f 02 bd 27 52 1f 3e 21 fe 46 3e 07 29 8f 3d
       -0.031768337 0.15558682 0.1943288 0.06990247
0003a0 b0 ff e6 bd 22 73 c0 bd bd 0a e5 bc 9e 88 4a 3e
       -0.11279237 -0.0939696 -0.027959222 0.19778678
0003b0 a7 ba f5 3d 84 70 7c 3d 87 48 45 be 5b 48 f5 3d
       0.11998492 0.06163074 -0.19265948 0.11976691
0003c0 80 f3 41 3e 25 4a 37 bd 43 25 04 be 66 6c 11 bc
       0.18940544 -0.044748444 -0.12904839 -0.008875942
0003d0 9f 83 2f 3d 76 1a 10 bd ae ab 15 3e ef 40 30 3e
       0.042850133 -0.035181485 0.14616272 0.1721227
0003e0 c7 f4 28 be fb 64 ac bc 8c 05 39 3e 88 89 91 3d
       -0.16499625 -0.021044245 0.18068522 0.0710631
0003f0 b2 f0 f8 bd e9 5d 53 3e 55 a8 53 3e 03 85 17 be
       -0.12155284 0.20641293 0.20669682 -0.14796834

arith.constant9 f4 [128, 800]
000000 37 0d 7f bd b7 55 13 bc e3 d5 8f 3c 42 69 96 3d
       -0.062268462 -0.008992604 0.017558044 0.07344295
000010 aa 8a c6 bc 60 b7 94 bd f8 df 81 bd a0 a5 6e 3d
       -0.024236042 -0.072615385 -0.06341547 0.05826342
000020 20 0d 0b bd ec 84 35 3d b1 35 1a 3d cb d9 95 bd
       -0.033948064 0.044316217 0.03764886 -0.07316931
000030 3c c4 ae bc 45 58 64 3d b2 08 d1 3c 2b f7 80 3d
       -0.021333806 0.055748243 0.025516842 0.062971435
000040 b5 1b 00 bc 80 48 bd 3b 0b 74 a6 bd 52 61 15 3d
       -0.007819106 0.005776465 -0.08127602 0.036469765
000050 eb 46 36 3d ac 0a 2a 3d bc 90 b1 bc 25 38 b0 bd
       0.044501226 0.041514084 -0.02167546 -0.08604459
000060 6e cf 4e bd b7 38 09 bd 20 78 f3 bc f2 40 94 3d
       -0.05049079 -0.033501353 -0.029720366 0.0723895
000070 65 2b 46 3b 1c 79 95 3d 72 c8 3c 3c 93 49 69 bd
       0.0030238267 0.072984904 0.011522399 -0.05695493
000080 8d 89 bd bb 11 cc 26 3d da 44 5c 3c 1b 35 9c bd
       -0.0057842196 0.040721957 0.01344415 -0.076273166
000090 f8 e6 ab bc f1 8f aa bd ed e1 4a bd db d5 66 bd
       -0.020984158 -0.08328236 -0.049531866 -0.056356292
0000a0 1e 5f 8f 3c b5 5e 88 3d 1f 59 31 3d c8 b1 78 3d
       0.01750141 0.06658689 0.043297883 0.06071642
0000b0 70 81 84 3c a6 77 38 3d 21 73 3e 3c 53 24 98 3d
       0.016175002 0.04503598 0.011624129 0.07428803
0000c0 d8 e4 8c 3d f3 e3 e2 bc 2b a4 6a bd 7c 75 8c 3d
       0.06879586 -0.027696585 -0.05728547 0.06858346
0000d0 e0 a6 ce 3c 99 52 50 bc 6d dd 50 bd 66 ad ad 3b
       0.025226057 -0.012715005 -0.050992418 0.0053002117
0000e0 dd 7d 24 bd 01 08 89 bd 4c fd 48 bd bd f4 28 3d
       -0.040159095 -0.0669098 -0.049069688 0.041249026
0000f0 c1 48 48 bd 71 cd b4 3d 15 ed 7e 3c 12 d7 c4 3b
       -0.04889751 0.08828247 0.015559454 0.0060070837
000100 29 ea 51 3c cf 17 82 bc 06 41 ef 3c 5d 62 cb bc
       0.012812176 -0.015880493 0.02920581 -0.024827177
000110 f6 eb 3c bc 0a 95 1d bc ab 79 5b 3c 05 af aa 3b
       -0.011530867 -0.009618053 0.013395707 0.0052088522
000120 43 47 87 3d a7 7a 11 3b f5 6c f3 bc 2e 23 93 3d
       0.06605389 0.002219835 -0.02971504 0.07184444
000130 81 42 80 3d e8 bb 09 bd bb b5 3d 3c 3d e9 97 3c
       0.062626846 -0.033626467 0.011578972 0.018543834
000140 a8 95 cc 3c b0 ef ec bb 27 4c c1 bc e1 e1 9c 3d
       0.024973705 -0.0072307214 -0.023595883 0.076602705
000150 db 94 f6 3c 71 ff 29 3d 8e d9 7f 3d d5 f8 20 3d
       0.030100277 0.041503374 0.062463336 0.039299805
000160 8e 6b 6e bd 8c 49 b0 3a 6d c6 92 3d c4 c9 60 bd
       -0.05820804 0.0013449653 0.07166753 -0.05487992
000170 50 9d 2a bd b4 ac 92 bd 4c 50 8b 3d 10 ce c3 bc
       -0.04165393 -0.07161847 0.06802425 -0.02390197
000180 ba d8 0f 3d 19 26 2a 3d 73 33 3b bc 61 b0 81 3d
       0.035118796 0.04154024 -0.011425841 0.0633247
000190 f7 78 0d bd 06 e5 11 bd 32 80 a5 3d 43 3a 09 3d
       -0.03453919 -0.035618804 0.08081092 0.03350283
0001a0 0f 47 38 3d 8b 8d 90 3c 5d b5 8f 3c c9 9d a8 bc
       0.04498964 0.017645618 0.017542535 -0.02058305
0001b0 49 49 76 3d 6d b8 48 bd 57 81 23 bd cc 2b 6b 3d
       0.060128484 -0.049004007 -0.03991827 0.057414815
0001c0 d9 32 86 bd e0 4a 2f 3b 7c 4d 52 3d 21 76 83 bb
       -0.06552667 0.002674751 0.051343426 -0.004011885
0001d0 07 72 dd bc 78 e7 dc bb 51 a0 50 3d 25 bd 4a 3c
       -0.027031912 -0.0067414604 0.05093414 0.012374197
0001e0 c9 51 5c 3d d1 b0 4c 3d 51 4e 45 bd 2a 81 95 bd
       0.053788934 0.049973313 -0.04817039 -0.07300027
0001f0 99 e1 4e 3c 4c f5 4e bd 1a fb 07 bd 69 19 8e 3d
       0.012627029 -0.050526902 -0.033198453 0.0693844
000200 e5 39 0c bd 77 d3 5a 3d 2f 99 7f 3d ac 2b 57 bd
       -0.0342349 0.053424325 0.062401947 -0.052531883
000210 78 48 6f bd 63 97 7a 3d 38 36 a4 3b b5 23 ca 3a
       -0.05841872 0.06117953 0.005011346 0.0015422018
000220 5e 3a 53 bd 3b d8 4a bd 3a d7 86 bd 0b f7 ae 3d
       -0.051569335 -0.04952262 -0.0658402 0.085432135
000230 38 86 0b 3d 4b 2f aa bc e8 35 55 3d b7 50 7a 3d
       0.034063548 -0.020774504 0.052053362 0.061112132
000240 48 76 91 3d 0c 60 10 3d 45 a0 9e 3b 33 64 8f bc
       0.071026385 0.035247847 0.004840883 -0.017503833
000250 55 60 71 3d a7 34 68 3c 70 f6 bb bc 5a ba e8 bc
       0.05892976 0.01417271 -0.022944659 -0.028409172
000260 d7 5a 4b bd b4 bd 2e bd 46 b3 50 3b 16 6d 75 3c
       -0.04964718 -0.042661384 0.0031845137 0.014979621
000270 69 0e 9f bd cc 89 bc bc fd 05 ba bc 48 c2 7f 39
       -0.077664204 -0.023014925 -0.022707934 0.0002439107
000280 1f fa 6d 3d 67 51 19 bb de 79 30 3c e2 aa 41 bd
       0.058099862 -0.0023394467 0.010771243 -0.047282107
000290 9d ee 1f 3d b1 b7 d4 bc 7e 07 b3 bb 75 4d aa bc
       0.03904592 -0.025966497 -0.0054635396 -0.020788888
0002a0 23 ec 25 3c 0a 2b 0a 3d 67 48 d9 bc 52 03 3e 3d
       0.0101271 0.03373245 -0.026523782 0.046389885
0002b0 68 9f 51 3d ea 8f b8 bd a0 87 4f 3d 3c 8b 76 3d
       0.051177412 -0.090118244 0.05066645 0.060191378
0002c0 cb 69 75 3d c4 5a 0b bd 4e e7 8c 3d 7c f8 bc 3b
       0.059915345 -0.034022108 0.06880055 0.0057669263
0002d0 47 d6 b7 3d 8c da 7e 3c 86 07 ed bc 28 5e b1 bd
       0.08976417 0.015555035 -0.028934252 -0.08660537
0002e0 3e 4b 5d bc 3e 47 a2 3d af 98 eb 3c 7a 56 ac bd
       -0.013506709 0.079237446 0.028759329 -0.084149316
0002f0 58 35 cc bc 83 35 04 bd ef cb af 3c d3 e0 2b 3d
       -0.02492778 -0.032277595 0.021459548 0.041962456
000300 75 4d 28 bd bd ab 6f 3d 5c 29 5e 3c 60 2a 9e bc
       -0.041089494 0.05851339 0.0135596655 -0.019307315
000310 50 69 7b 3b ab d8 95 3d b7 c7 9c 3d 3b 2f 40 bd
       0.0038362332 0.07316717 0.0765528 -0.046920042
000320 ea cd bf 3c 1f 8b dd 3c a7 25 87 bd 72 d3 6c 3d
       0.023413617 0.027043877 -0.065989785 0.057818837
000330 69 24 06 bd 88 de 65 3c 90 c8 b3 3b 22 cc 80 3c
       -0.032749567 0.014030106 0.0054865554 0.015722338
000340 17 62 8e bc 2d 96 42 3c 3b 27 71 bd 7a 75 76 bb
       -0.017380757 0.011876625 -0.058875304 -0.0037606643
000350 70 f8 71 bd 01 19 a7 bd bc 74 16 bd aa 0f 90 bd
       -0.05907482 -0.08159066 -0.03673242 -0.07034238
000360 d0 1e 62 bc 96 33 49 bc 1e a2 5a ba 07 35 88 bd
       -0.013801292 -0.012280365 -0.00083401974 -0.06650739
000370 94 83 f6 3a 97 b5 62 bd d7 3a 22 bd 4a ca 78 3c
       0.0018807524 -0.05534896 -0.039606895 0.015184948
000380 ab 28 32 3d 44 39 21 bc 2b 91 57 3d 32 b4 24 3d
       0.043495815 -0.009840313 0.052628677 0.04021091
000390 59 20 67 3d f4 cf 0e 3c 87 da 63 3d 32 2d 84 bc
       0.056427334 0.008716572 0.055628326 -0.016134832
0003a0 4b a4 d1 bc 1f c8 b6 3c 86 2e 29 bd 65 41 92 3d
       -0.025591036 0.022312222 -0.041304134 0.07141379
0003b0 71 ec 4c 3d f3 0e 70 bd cb ec e8 3c d0 f2 e3 bb
       0.050030176 -0.058608007 0.028433224 -0.0069564357
0003c0 2f ab 6a 3d c9 c1 86 bd 9a 1f a2 ba 29 62 41 bd
       0.05729216 -0.0657993 -0.0012369037 -0.047212753
0003d0 69 e3 76 3d 0f b4 94 3b 8b 2e 9c 3d 0b 74 91 3d
       0.06027547 0.004538066 0.07626065 0.071022116
0003e0 67 e7 78 3c e3 98 4b 3d d3 b0 33 3d 58 a3 07 3d
       0.015191889 0.04970635 0.043869805 0.03311476
0003f0 5c 82 9a 3d e7 5e 0f bd 64 d4 18 3d fb c5 78 3c
       0.07544395 -0.035002615 0.037311926 0.015183921

arith.constant10 f4 [4]
000000 61 c9 ee bb 96 fa 2c bb c7 fd d8 3b 00 60 59 3a
       -0.00728719 -0.0026394478 0.0066220495 0.0008292198
